…
such file or directory
>>> Configuration
{'dataset_filepath': 'datasets/pdb_structures_16384.h5', 'train_selection_filepath': 'datasets/subunits_train_set.txt', 'test_selection_filepath': 'datasets/subunits_test_set.txt', 'max_ba': 1, 'max_size': 8192, 'min_num_res': 48, 'r_noise': 0.0, 'virt_cb': True, 'partial': True}
{'run_name': 's_v6_4_2022-09-16_12-46', 'output_dir': 'save', 'reload': True, 'device': 'cuda', 'num_epochs': 100, 'log_step': 512, 'eval_step': 4096, 'eval_size': 512, 'learning_rate': 0.0001, 'pos_weight_factor': 0.9, 'comment': ''}
>>> Model
Model(
  (em): Sequential(
    (0): Linear(in_features=50, out_features=32, bias=True)
    (1): ELU(alpha=1.0)
    (2): Linear(in_features=32, out_features=32, bias=True)
    (3): ELU(alpha=1.0)
    (4): Linear(in_features=32, out_features=32, bias=True)
  )
  (sum): Sequential(
    (0): StateUpdateLayer(
      (su): StateUpdate(
        (nqm): Sequential(
          (0): Linear(in_features=64, out_features=32, bias=True)
          (1): ELU(alpha=1.0)
          (2): Linear(in_features=32, out_features=32, bias=True)
          (3): ELU(alpha=1.0)
          (4): Linear(in_features=32, out_features=12, bias=True)
        )
        (eqkm): Sequential(
          (0): Linear(in_features=193, out_features=32, bias=True)
          (1): ELU(alpha=1.0)
          (2): Linear(in_features=32, out_features=32, bias=True)
          (3): ELU(alpha=1.0)
          (4): Linear(in_features=32, out_features=3, bias=True)
        )
        (epkm): Sequential(
          (0): Linear(in_features=193, out_features=32, bias=True)
          (1): ELU(alpha=1.0)
          (2): Linear(in_features=32, out_features=32, bias=True)
          (3): ELU(alpha=1.0)
          (4): Linear(in_features=32, out_features=12, bias=True)
        )
        (evm): Sequential(
          (0): Linear(in_features=193, out_features=64, bias=True)
          (1): ELU(alpha=1.0)
          (2): Linear(in_features=64, out_features=64, bias=True)
          (3): ELU(alpha=1.0)
          (4): Linear(in_features=64, out_features=64, bias=True)
        )
        (qpm): Sequential(
          (0): Linear(in_features=64, out_features=32, bias=True)
          (1): ELU(alpha=1.0)
          (2): Linear(in_features=32, out_features=32, bias=True)
          (3): ELU(alpha=1.0)
          (4): Linear(in_features=32, out_features=32, bias=True)
        )
        (ppm): Sequential(
          (0): Linear(in_features=64, out_features=32, bias=False)
        )
      )
    )
    (1): StateUpdateLayer(
      (su): StateUpdate(
        (nqm): Sequential(
          (0): Linear(in_features=64, out_features=32, bias=True)
          (1): ELU(alpha=1.0)
          (2): Linear(in_features=32, out_features=32, bias=True)
          (3): ELU(alpha=1.0)
          (4): Linear(in_features=32, out_features=12, bias=True)
        )
        (eqkm): Sequential(
          (0): Linear(in_features=193, out_features=32, bias=True)
          (1): ELU(alpha=1.0)
          (2): Linear(in_features=32, out_features=32, bias=True)
          (3): ELU(alpha=1.0)
          (4): Linear(in_features=32, out_features=3, bias=True)
        )
        (epkm): Sequential(
          (0): Linear(in_features=193, out_features=32, bias=True)
          (1): ELU(alpha=1.0)
          (2): Linear(in_features=32, out_features=32, bias=True)
          (3): ELU(alpha=1.0)
          (4): Linear(in_features=32, out_features=12, bias=True)
        )
        (evm): Sequential(
          (0): Linear(in_features=193, out_features=64, bias=True)
          (1): ELU(alpha=1.0)
          (2): Linear(in_features=64, out_features=64, bias=True)
          (3): ELU(alpha=1.0)
          (4): Linear(in_features=64, out_features=64, bias=True)
        )
        (qpm): Sequential(
          (0): Linear(in_features=64, out_features=32, bias=True)
          (1): ELU(alpha=1.0)
          (2): Linear(in_features=32, out_features=32, bias=True)
          (3): ELU(alpha=1.0)
          (4): Linear(in_features=32, out_features=32, bias=True)
        )
        (ppm): Sequential(
          (0): Linear(in_features=64, out_features=32, bias=False)
        )
      )
    )
    (2): StateUpdateLayer(
      (su): StateUpdate(
        (nqm): Sequential(
          (0): Linear(in_features=64, out_features=32, bias=True)
          (1): ELU(alpha=1.0)
          (2): Linear(in_features=32, out_features=32, bias=True)
          (3): ELU(alpha=1.0)
          (4): Linear(in_features=32, out_features=12, bias=True)
        )
        (eqkm): Sequential(
          (0): Linear(in_features=193, out_features=32, bias=True)
          (1): ELU(alpha=1.0)
          (2): Linear(in_features=32, out_features=32, bias=True)
          (3): ELU(alpha=1.0)
          (4): Linear(in_features=32, out_features=3, bias=True)
        )
        (epkm): Sequential(
          (0): Linear(in_features=193, out_features=32, bias=True)
          (1): ELU(alpha=1.0)
          (2): Linear(in_features=32, out_features=32, bias=True)
          (3): ELU(alpha=1.0)
          (4): Linear(in_features=32, out_features=12, bias=True)
        )
        (evm): Sequential(
          (0): Linear(in_features=193, out_features=64, bias=True)
          (1): ELU(alpha=1.0)
          (2): Linear(in_features=64, out_features=64, bias=True)
          (3): ELU(alpha=1.0)
          (4): Linear(in_features=64, out_features=64, bias=True)
        )
        (qpm): Sequential(
          (0): Linear(in_features=64, out_features=32, bias=True)
          (1): ELU(alpha=1.0)
          (2): Linear(in_features=32, out_features=32, bias=True)
          (3): ELU(alpha=1.0)
          (4): Linear(in_features=32, out_features=32, bias=True)
        )
        (ppm): Sequential(
          (0): Linear(in_features=64, out_features=32, bias=False)
        )
      )
    )
    (3): StateUpdateLayer(
      (su): StateUpdate(
        (nqm): Sequential(
          (0): Linear(in_features=64, out_features=32, bias=True)
          (1): ELU(alpha=1.0)
          (2): Linear(in_features=32, out_features=32, bias=True)
          (3): ELU(alpha=1.0)
          (4): Linear(in_features=32, out_features=12, bias=True)
        )
        (eqkm): Sequential(
          (0): Linear(in_features=193, out_features=32, bias=True)
          (1): ELU(alpha=1.0)
          (2): Linear(in_features=32, out_features=32, bias=True)
          (3): ELU(alpha=1.0)
          (4): Linear(in_features=32, out_features=3, bias=True)
        )
        (epkm): Sequential(
          (0): Linear(in_features=193, out_features=32, bias=True)
          (1): ELU(alpha=1.0)
          (2): Linear(in_features=32, out_features=32, bias=True)
          (3): ELU(alpha=1.0)
          (4): Linear(in_features=32, out_features=12, bias=True)
        )
        (evm): Sequential(
          (0): Linear(in_features=193, out_features=64, bias=True)
          (1): ELU(alpha=1.0)
          (2): Linear(in_features=64, out_features=64, bias=True)
          (3): ELU(alpha=1.0)
          (4): Linear(in_features=64, out_features=64, bias=True)
        )
        (qpm): Sequential(
          (0): Linear(in_features=64, out_features=32, bias=True)
          (1): ELU(alpha=1.0)
          (2): Linear(in_features=32, out_features=32, bias=True)
          (3): ELU(alpha=1.0)
          (4): Linear(in_features=32, out_features=32, bias=True)
        )
        (ppm): Sequential(
          (0): Linear(in_features=64, out_features=32, bias=False)
        )
      )
    )
    (4): StateUpdateLayer(
      (su): StateUpdate(
        (nqm): Sequential(
          (0): Linear(in_features=64, out_features=32, bias=True)
          (1): ELU(alpha=1.0)
          (2): Linear(in_features=32, out_features=32, bias=True)
          (3): ELU(alpha=1.0)
          (4): Linear(in_features=32, out_features=12, bias=True)
        )
        (eqkm): Sequential(
          (0): Linear(in_features=193, out_features=32, bias=True)
          (1): ELU(alpha=1.0)
          (2): Linear(in_features=32, out_features=32, bias=True)
          (3): ELU(alpha=1.0)
          (4): Linear(in_features=32, out_features=3, bias=True)
        )
        (epkm): Sequential(
          (0): Linear(in_features=193, out_features=32, bias=True)
          (1): ELU(alpha=1.0)
          (2): Linear(in_features=32, out_features=32, bias=True)
          (3): ELU(alpha=1.0)
          (4): Linear(in_features=32, out_features=12, bias=True)
        )
        (evm): Sequential(
          (0): Linear(in_features=193, out_features=64, bias=True)
          (1): ELU(alpha=1.0)
          (2): Linear(in_features=64, out_features=64, bias=True)
          (3): ELU(alpha=1.0)
          (4): Linear(in_features=64, out_features=64, bias=True)
        )
        (qpm): Sequential(
          (0): Linear(in_features=64, out_features=32, bias=True)
          (1): ELU(alpha=1.0)
          (2): Linear(in_features=32, out_features=32, bias=True)
          (3): ELU(alpha=1.0)
          (4): Linear(in_features=32, out_features=32, bias=True)
        )
        (ppm): Sequential(
          (0): Linear(in_features=64, out_features=32, bias=False)
        )
      )
    )
    (5): StateUpdateLayer(
      (su): StateUpdate(
        (nqm): Sequential(
          (0): Linear(in_features=64, out_features=32, bias=True)
          (1): ELU(alpha=1.0)
          (2): Linear(in_features=32, out_features=32, bias=True)
          (3): ELU(alpha=1.0)
          (4): Linear(in_features=32, out_features=12, bias=True)
        )
        (eqkm): Sequential(
          (0): Linear(in_features=193, out_features=32, bias=True)
          (1): ELU(alpha=1.0)
          (2): Linear(in_features=32, out_features=32, bias=True)
          (3): ELU(alpha=1.0)
          (4): Linear(in_features=32, out_features=3, bias=True)
        )
        (epkm): Sequential(
          (0): Linear(in_features=193, out_features=32, bias=True)
          (1): ELU(alpha=1.0)
          (2): Linear(in_features=32, out_features=32, bias=True)
          (3): ELU(alpha=1.0)
          (4): Linear(in_features=32, out_features=12, bias=True)
        )
        (evm): Sequential(
          (0): Linear(in_features=193, out_features=64, bias=True)
          (1): ELU(alpha=1.0)
          (2): Linear(in_features=64, out_features=64, bias=True)
          (3): ELU(alpha=1.0)
          (4): Linear(in_features=64, out_features=64, bias=True)
        )
        (qpm): Sequential(
          (0): Linear(in_features=64, out_features=32, bias=True)
          (1): ELU(alpha=1.0)
          (2): Linear(in_features=32, out_features=32, bias=True)
          (3): ELU(alpha=1.0)
          (4): Linear(in_features=32, out_features=32, bias=True)
        )
        (ppm): Sequential(
          (0): Linear(in_features=64, out_features=32, bias=False)
        )
      )
    )
    (6): StateUpdateLayer(
      (su): StateUpdate(
        (nqm): Sequential(
          (0): Linear(in_features=64, out_features=32, bias=True)
          (1): ELU(alpha=1.0)
          (2): Linear(in_features=32, out_features=32, bias=True)
          (3): ELU(alpha=1.0)
          (4): Linear(in_features=32, out_features=12, bias=True)
        )
        (eqkm): Sequential(
          (0): Linear(in_features=193, out_features=32, bias=True)
          (1): ELU(alpha=1.0)
          (2): Linear(in_features=32, out_features=32, bias=True)
          (3): ELU(alpha=1.0)
          (4): Linear(in_features=32, out_features=3, bias=True)
        )
        (epkm): Sequential(
          (0): Linear(in_features=193, out_features=32, bias=True)
          (1): ELU(alpha=1.0)
          (2): Linear(in_features=32, out_features=32, bias=True)
          (3): ELU(alpha=1.0)
          (4): Linear(in_features=32, out_features=12, bias=True)
        )
        (evm): Sequential(
          (0): Linear(in_features=193, out_features=64, bias=True)
          (1): ELU(alpha=1.0)
          (2): Linear(in_features=64, out_features=64, bias=True)
          (3): ELU(alpha=1.0)
          (4): Linear(in_features=64, out_features=64, bias=True)
        )
        (qpm): Sequential(
          (0): Linear(in_features=64, out_features=32, bias=True)
          (1): ELU(alpha=1.0)
          (2): Linear(in_features=32, out_features=32, bias=True)
          (3): ELU(alpha=1.0)
          (4): Linear(in_features=32, out_features=32, bias=True)
        )
        (ppm): Sequential(
          (0): Linear(in_features=64, out_features=32, bias=False)
        )
      )
    )
    (7): StateUpdateLayer(
      (su): StateUpdate(
        (nqm): Sequential(
          (0): Linear(in_features=64, out_features=32, bias=True)
          (1): ELU(alpha=1.0)
          (2): Linear(in_features=32, out_features=32, bias=True)
          (3): ELU(alpha=1.0)
          (4): Linear(in_features=32, out_features=12, bias=True)
        )
        (eqkm): Sequential(
          (0): Linear(in_features=193, out_features=32, bias=True)
          (1): ELU(alpha=1.0)
          (2): Linear(in_features=32, out_features=32, bias=True)
          (3): ELU(alpha=1.0)
          (4): Linear(in_features=32, out_features=3, bias=True)
        )
        (epkm): Sequential(
          (0): Linear(in_features=193, out_features=32, bias=True)
          (1): ELU(alpha=1.0)
          (2): Linear(in_features=32, out_features=32, bias=True)
          (3): ELU(alpha=1.0)
          (4): Linear(in_features=32, out_features=12, bias=True)
        )
        (evm): Sequential(
          (0): Linear(in_features=193, out_features=64, bias=True)
          (1): ELU(alpha=1.0)
          (2): Linear(in_features=64, out_features=64, bias=True)
          (3): ELU(alpha=1.0)
          (4): Linear(in_features=64, out_features=64, bias=True)
        )
        (qpm): Sequential(
          (0): Linear(in_features=64, out_features=32, bias=True)
          (1): ELU(alpha=1.0)
          (2): Linear(in_features=32, out_features=32, bias=True)
          (3): ELU(alpha=1.0)
          (4): Linear(in_features=32, out_features=32, bias=True)
        )
        (ppm): Sequential(
          (0): Linear(in_features=64, out_features=32, bias=False)
        )
      )
    )
    (8): StateUpdateLayer(
      (su): StateUpdate(
        (nqm): Sequential(
          (0): Linear(in_features=64, out_features=32, bias=True)
          (1): ELU(alpha=1.0)
          (2): Linear(in_features=32, out_features=32, bias=True)
          (3): ELU(alpha=1.0)
          (4): Linear(in_features=32, out_features=12, bias=True)
        )
        (eqkm): Sequential(
          (0): Linear(in_features=193, out_features=32, bias=True)
          (1): ELU(alpha=1.0)
          (2): Linear(in_features=32, out_features=32, bias=True)
          (3): ELU(alpha=1.0)
          (4): Linear(in_features=32, out_features=3, bias=True)
        )
        (epkm): Sequential(
          (0): Linear(in_features=193, out_features=32, bias=True)
          (1): ELU(alpha=1.0)
          (2): Linear(in_features=32, out_features=32, bias=True)
          (3): ELU(alpha=1.0)
          (4): Linear(in_features=32, out_features=12, bias=True)
        )
        (evm): Sequential(
          (0): Linear(in_features=193, out_features=64, bias=True)
          (1): ELU(alpha=1.0)
          (2): Linear(in_features=64, out_features=64, bias=True)
          (3): ELU(alpha=1.0)
          (4): Linear(in_features=64, out_features=64, bias=True)
        )
        (qpm): Sequential(
          (0): Linear(in_features=64, out_features=32, bias=True)
          (1): ELU(alpha=1.0)
          (2): Linear(in_features=32, out_features=32, bias=True)
          (3): ELU(alpha=1.0)
          (4): Linear(in_features=32, out_features=32, bias=True)
        )
        (ppm): Sequential(
          (0): Linear(in_features=64, out_features=32, bias=False)
        )
      )
    )
    (9): StateUpdateLayer(
      (su): StateUpdate(
        (nqm): Sequential(
          (0): Linear(in_features=64, out_features=32, bias=True)
          (1): ELU(alpha=1.0)
          (2): Linear(in_features=32, out_features=32, bias=True)
          (3): ELU(alpha=1.0)
          (4): Linear(in_features=32, out_features=12, bias=True)
        )
        (eqkm): Sequential(
          (0): Linear(in_features=193, out_features=32, bias=True)
          (1): ELU(alpha=1.0)
          (2): Linear(in_features=32, out_features=32, bias=True)
          (3): ELU(alpha=1.0)
          (4): Linear(in_features=32, out_features=3, bias=True)
        )
        (epkm): Sequential(
          (0): Linear(in_features=193, out_features=32, bias=True)
          (1): ELU(alpha=1.0)
          (2): Linear(in_features=32, out_features=32, bias=True)
          (3): ELU(alpha=1.0)
          (4): Linear(in_features=32, out_features=12, bias=True)
        )
        (evm): Sequential(
          (0): Linear(in_features=193, out_features=64, bias=True)
          (1): ELU(alpha=1.0)
          (2): Linear(in_features=64, out_features=64, bias=True)
          (3): ELU(alpha=1.0)
          (4): Linear(in_features=64, out_features=64, bias=True)
        )
        (qpm): Sequential(
          (0): Linear(in_features=64, out_features=32, bias=True)
          (1): ELU(alpha=1.0)
          (2): Linear(in_features=32, out_features=32, bias=True)
          (3): ELU(alpha=1.0)
          (4): Linear(in_features=32, out_features=32, bias=True)
        )
        (ppm): Sequential(
          (0): Linear(in_features=64, out_features=32, bias=False)
        )
      )
    )
    (10): StateUpdateLayer(
      (su): StateUpdate(
        (nqm): Sequential(
          (0): Linear(in_features=64, out_features=32, bias=True)
          (1): ELU(alpha=1.0)
          (2): Linear(in_features=32, out_features=32, bias=True)
          (3): ELU(alpha=1.0)
          (4): Linear(in_features=32, out_features=12, bias=True)
        )
        (eqkm): Sequential(
          (0): Linear(in_features=193, out_features=32, bias=True)
          (1): ELU(alpha=1.0)
          (2): Linear(in_features=32, out_features=32, bias=True)
          (3): ELU(alpha=1.0)
          (4): Linear(in_features=32, out_features=3, bias=True)
        )
        (epkm): Sequential(
          (0): Linear(in_features=193, out_features=32, bias=True)
          (1): ELU(alpha=1.0)
          (2): Linear(in_features=32, out_features=32, bias=True)
          (3): ELU(alpha=1.0)
          (4): Linear(in_features=32, out_features=12, bias=True)
        )
        (evm): Sequential(
          (0): Linear(in_features=193, out_features=64, bias=True)
          (1): ELU(alpha=1.0)
          (2): Linear(in_features=64, out_features=64, bias=True)
          (3): ELU(alpha=1.0)
          (4): Linear(in_features=64, out_features=64, bias=True)
        )
        (qpm): Sequential(
          (0): Linear(in_features=64, out_features=32, bias=True)
          (1): ELU(alpha=1.0)
          (2): Linear(in_features=32, out_features=32, bias=True)
          (3): ELU(alpha=1.0)
          (4): Linear(in_features=32, out_features=32, bias=True)
        )
        (ppm): Sequential(
          (0): Linear(in_features=64, out_features=32, bias=False)
        )
      )
    )
    (11): StateUpdateLayer(
      (su): StateUpdate(
        (nqm): Sequential(
          (0): Linear(in_features=64, out_features=32, bias=True)
          (1): ELU(alpha=1.0)
          (2): Linear(in_features=32, out_features=32, bias=True)
          (3): ELU(alpha=1.0)
          (4): Linear(in_features=32, out_features=12, bias=True)
        )
        (eqkm): Sequential(
          (0): Linear(in_features=193, out_features=32, bias=True)
          (1): ELU(alpha=1.0)
          (2): Linear(in_features=32, out_features=32, bias=True)
          (3): ELU(alpha=1.0)
          (4): Linear(in_features=32, out_features=3, bias=True)
        )
        (epkm): Sequential(
          (0): Linear(in_features=193, out_features=32, bias=True)
          (1): ELU(alpha=1.0)
          (2): Linear(in_features=32, out_features=32, bias=True)
          (3): ELU(alpha=1.0)
          (4): Linear(in_features=32, out_features=12, bias=True)
        )
        (evm): Sequential(
          (0): Linear(in_features=193, out_features=64, bias=True)
          (1): ELU(alpha=1.0)
          (2): Linear(in_features=64, out_features=64, bias=True)
          (3): ELU(alpha=1.0)
          (4): Linear(in_features=64, out_features=64, bias=True)
        )
        (qpm): Sequential(
          (0): Linear(in_features=64, out_features=32, bias=True)
          (1): ELU(alpha=1.0)
          (2): Linear(in_features=32, out_features=32, bias=True)
          (3): ELU(alpha=1.0)
          (4): Linear(in_features=32, out_features=32, bias=True)
        )
        (ppm): Sequential(
          (0): Linear(in_features=64, out_features=32, bias=False)
        )
      )
    )
    (12): StateUpdateLayer(
      (su): StateUpdate(
        (nqm): Sequential(
          (0): Linear(in_features=64, out_features=32, bias=True)
          (1): ELU(alpha=1.0)
          (2): Linear(in_features=32, out_features=32, bias=True)
          (3): ELU(alpha=1.0)
          (4): Linear(in_features=32, out_features=12, bias=True)
        )
        (eqkm): Sequential(
          (0): Linear(in_features=193, out_features=32, bias=True)
          (1): ELU(alpha=1.0)
          (2): Linear(in_features=32, out_features=32, bias=True)
          (3): ELU(alpha=1.0)
          (4): Linear(in_features=32, out_features=3, bias=True)
        )
        (epkm): Sequential(
          (0): Linear(in_features=193, out_features=32, bias=True)
          (1): ELU(alpha=1.0)
          (2): Linear(in_features=32, out_features=32, bias=True)
          (3): ELU(alpha=1.0)
          (4): Linear(in_features=32, out_features=12, bias=True)
        )
        (evm): Sequential(
          (0): Linear(in_features=193, out_features=64, bias=True)
          (1): ELU(alpha=1.0)
          (2): Linear(in_features=64, out_features=64, bias=True)
          (3): ELU(alpha=1.0)
          (4): Linear(in_features=64, out_features=64, bias=True)
        )
        (qpm): Sequential(
          (0): Linear(in_features=64, out_features=32, bias=True)
          (1): ELU(alpha=1.0)
          (2): Linear(in_features=32, out_features=32, bias=True)
          (3): ELU(alpha=1.0)
          (4): Linear(in_features=32, out_features=32, bias=True)
        )
        (ppm): Sequential(
          (0): Linear(in_features=64, out_features=32, bias=False)
        )
      )
    )
    (13): StateUpdateLayer(
      (su): StateUpdate(
        (nqm): Sequential(
          (0): Linear(in_features=64, out_features=32, bias=True)
          (1): ELU(alpha=1.0)
          (2): Linear(in_features=32, out_features=32, bias=True)
          (3): ELU(alpha=1.0)
          (4): Linear(in_features=32, out_features=12, bias=True)
        )
        (eqkm): Sequential(
          (0): Linear(in_features=193, out_features=32, bias=True)
          (1): ELU(alpha=1.0)
          (2): Linear(in_features=32, out_features=32, bias=True)
          (3): ELU(alpha=1.0)
          (4): Linear(in_features=32, out_features=3, bias=True)
        )
        (epkm): Sequential(
          (0): Linear(in_features=193, out_features=32, bias=True)
          (1): ELU(alpha=1.0)
          (2): Linear(in_features=32, out_features=32, bias=True)
          (3): ELU(alpha=1.0)
          (4): Linear(in_features=32, out_features=12, bias=True)
        )
        (evm): Sequential(
          (0): Linear(in_features=193, out_features=64, bias=True)
          (1): ELU(alpha=1.0)
          (2): Linear(in_features=64, out_features=64, bias=True)
          (3): ELU(alpha=1.0)
          (4): Linear(in_features=64, out_features=64, bias=True)
        )
        (qpm): Sequential(
          (0): Linear(in_features=64, out_features=32, bias=True)
          (1): ELU(alpha=1.0)
          (2): Linear(in_features=32, out_features=32, bias=True)
          (3): ELU(alpha=1.0)
          (4): Linear(in_features=32, out_features=32, bias=True)
        )
        (ppm): Sequential(
          (0): Linear(in_features=64, out_features=32, bias=False)
        )
      )
    )
    (14): StateUpdateLayer(
      (su): StateUpdate(
        (nqm): Sequential(
          (0): Linear(in_features=64, out_features=32, bias=True)
          (1): ELU(alpha=1.0)
          (2): Linear(in_features=32, out_features=32, bias=True)
          (3): ELU(alpha=1.0)
          (4): Linear(in_features=32, out_features=12, bias=True)
        )
        (eqkm): Sequential(
          (0): Linear(in_features=193, out_features=32, bias=True)
          (1): ELU(alpha=1.0)
          (2): Linear(in_features=32, out_features=32, bias=True)
          (3): ELU(alpha=1.0)
          (4): Linear(in_features=32, out_features=3, bias=True)
        )
        (epkm): Sequential(
          (0): Linear(in_features=193, out_features=32, bias=True)
          (1): ELU(alpha=1.0)
          (2): Linear(in_features=32, out_features=32, bias=True)
          (3): ELU(alpha=1.0)
          (4): Linear(in_features=32, out_features=12, bias=True)
        )
        (evm): Sequential(
          (0): Linear(in_features=193, out_features=64, bias=True)
          (1): ELU(alpha=1.0)
          (2): Linear(in_features=64, out_features=64, bias=True)
          (3): ELU(alpha=1.0)
          (4): Linear(in_features=64, out_features=64, bias=True)
        )
        (qpm): Sequential(
          (0): Linear(in_features=64, out_features=32, bias=True)
          (1): ELU(alpha=1.0)
          (2): Linear(in_features=32, out_features=32, bias=True)
          (3): ELU(alpha=1.0)
          (4): Linear(in_features=32, out_features=32, bias=True)
        )
        (ppm): Sequential(
          (0): Linear(in_features=64, out_features=32, bias=False)
        )
      )
    )
    (15): StateUpdateLayer(
      (su): StateUpdate(
        (nqm): Sequential(
          (0): Linear(in_features=64, out_features=32, bias=True)
          (1): ELU(alpha=1.0)
          (2): Linear(in_features=32, out_features=32, bias=True)
          (3): ELU(alpha=1.0)
          (4): Linear(in_features=32, out_features=12, bias=True)
        )
        (eqkm): Sequential(
          (0): Linear(in_features=193, out_features=32, bias=True)
          (1): ELU(alpha=1.0)
          (2): Linear(in_features=32, out_features=32, bias=True)
          (3): ELU(alpha=1.0)
          (4): Linear(in_features=32, out_features=3, bias=True)
        )
        (epkm): Sequential(
          (0): Linear(in_features=193, out_features=32, bias=True)
          (1): ELU(alpha=1.0)
          (2): Linear(in_features=32, out_features=32, bias=True)
          (3): ELU(alpha=1.0)
          (4): Linear(in_features=32, out_features=12, bias=True)
        )
        (evm): Sequential(
          (0): Linear(in_features=193, out_features=64, bias=True)
          (1): ELU(alpha=1.0)
          (2): Linear(in_features=64, out_features=64, bias=True)
          (3): ELU(alpha=1.0)
          (4): Linear(in_features=64, out_features=64, bias=True)
        )
        (qpm): Sequential(
          (0): Linear(in_features=64, out_features=32, bias=True)
          (1): ELU(alpha=1.0)
          (2): Linear(in_features=32, out_features=32, bias=True)
          (3): ELU(alpha=1.0)
          (4): Linear(in_features=32, out_features=32, bias=True)
        )
        (ppm): Sequential(
          (0): Linear(in_features=64, out_features=32, bias=False)
        )
      )
    )
    (16): StateUpdateLayer(
      (su): StateUpdate(
        (nqm): Sequential(
          (0): Linear(in_features=64, out_features=32, bias=True)
          (1): ELU(alpha=1.0)
          (2): Linear(in_features=32, out_features=32, bias=True)
          (3): ELU(alpha=1.0)
          (4): Linear(in_features=32, out_features=12, bias=True)
        )
        (eqkm): Sequential(
          (0): Linear(in_features=193, out_features=32, bias=True)
          (1): ELU(alpha=1.0)
          (2): Linear(in_features=32, out_features=32, bias=True)
          (3): ELU(alpha=1.0)
          (4): Linear(in_features=32, out_features=3, bias=True)
        )
        (epkm): Sequential(
          (0): Linear(in_features=193, out_features=32, bias=True)
          (1): ELU(alpha=1.0)
          (2): Linear(in_features=32, out_features=32, bias=True)
          (3): ELU(alpha=1.0)
          (4): Linear(in_features=32, out_features=12, bias=True)
        )
        (evm): Sequential(
          (0): Linear(in_features=193, out_features=64, bias=True)
          (1): ELU(alpha=1.0)
          (2): Linear(in_features=64, out_features=64, bias=True)
          (3): ELU(alpha=1.0)
          (4): Linear(in_features=64, out_features=64, bias=True)
        )
        (qpm): Sequential(
          (0): Linear(in_features=64, out_features=32, bias=True)
          (1): ELU(alpha=1.0)
          (2): Linear(in_features=32, out_features=32, bias=True)
          (3): ELU(alpha=1.0)
          (4): Linear(in_features=32, out_features=32, bias=True)
        )
        (ppm): Sequential(
          (0): Linear(in_features=64, out_features=32, bias=False)
        )
      )
    )
    (17): StateUpdateLayer(
      (su): StateUpdate(
        (nqm): Sequential(
          (0): Linear(in_features=64, out_features=32, bias=True)
          (1): ELU(alpha=1.0)
          (2): Linear(in_features=32, out_features=32, bias=True)
          (3): ELU(alpha=1.0)
          (4): Linear(in_features=32, out_features=12, bias=True)
        )
        (eqkm): Sequential(
          (0): Linear(in_features=193, out_features=32, bias=True)
          (1): ELU(alpha=1.0)
          (2): Linear(in_features=32, out_features=32, bias=True)
          (3): ELU(alpha=1.0)
          (4): Linear(in_features=32, out_features=3, bias=True)
        )
        (epkm): Sequential(
          (0): Linear(in_features=193, out_features=32, bias=True)
          (1): ELU(alpha=1.0)
          (2): Linear(in_features=32, out_features=32, bias=True)
          (3): ELU(alpha=1.0)
          (4): Linear(in_features=32, out_features=12, bias=True)
        )
        (evm): Sequential(
          (0): Linear(in_features=193, out_features=64, bias=True)
          (1): ELU(alpha=1.0)
          (2): Linear(in_features=64, out_features=64, bias=True)
          (3): ELU(alpha=1.0)
          (4): Linear(in_features=64, out_features=64, bias=True)
        )
        (qpm): Sequential(
          (0): Linear(in_features=64, out_features=32, bias=True)
          (1): ELU(alpha=1.0)
          (2): Linear(in_features=32, out_features=32, bias=True)
          (3): ELU(alpha=1.0)
          (4): Linear(in_features=32, out_features=32, bias=True)
        )
        (ppm): Sequential(
          (0): Linear(in_features=64, out_features=32, bias=False)
        )
      )
    )
    (18): StateUpdateLayer(
      (su): StateUpdate(
        (nqm): Sequential(
          (0): Linear(in_features=64, out_features=32, bias=True)
          (1): ELU(alpha=1.0)
          (2): Linear(in_features=32, out_features=32, bias=True)
          (3): ELU(alpha=1.0)
          (4): Linear(in_features=32, out_features=12, bias=True)
        )
        (eqkm): Sequential(
          (0): Linear(in_features=193, out_features=32, bias=True)
          (1): ELU(alpha=1.0)
          (2): Linear(in_features=32, out_features=32, bias=True)
          (3): ELU(alpha=1.0)
          (4): Linear(in_features=32, out_features=3, bias=True)
        )
        (epkm): Sequential(
          (0): Linear(in_features=193, out_features=32, bias=True)
          (1): ELU(alpha=1.0)
          (2): Linear(in_features=32, out_features=32, bias=True)
          (3): ELU(alpha=1.0)
          (4): Linear(in_features=32, out_features=12, bias=True)
        )
        (evm): Sequential(
          (0): Linear(in_features=193, out_features=64, bias=True)
          (1): ELU(alpha=1.0)
          (2): Linear(in_features=64, out_features=64, bias=True)
          (3): ELU(alpha=1.0)
          (4): Linear(in_features=64, out_features=64, bias=True)
        )
        (qpm): Sequential(
          (0): Linear(in_features=64, out_features=32, bias=True)
          (1): ELU(alpha=1.0)
          (2): Linear(in_features=32, out_features=32, bias=True)
          (3): ELU(alpha=1.0)
          (4): Linear(in_features=32, out_features=32, bias=True)
        )
        (ppm): Sequential(
          (0): Linear(in_features=64, out_features=32, bias=False)
        )
      )
    )
    (19): StateUpdateLayer(
      (su): StateUpdate(
        (nqm): Sequential(
          (0): Linear(in_features=64, out_features=32, bias=True)
          (1): ELU(alpha=1.0)
          (2): Linear(in_features=32, out_features=32, bias=True)
          (3): ELU(alpha=1.0)
          (4): Linear(in_features=32, out_features=12, bias=True)
        )
        (eqkm): Sequential(
          (0): Linear(in_features=193, out_features=32, bias=True)
          (1): ELU(alpha=1.0)
          (2): Linear(in_features=32, out_features=32, bias=True)
          (3): ELU(alpha=1.0)
          (4): Linear(in_features=32, out_features=3, bias=True)
        )
        (epkm): Sequential(
          (0): Linear(in_features=193, out_features=32, bias=True)
          (1): ELU(alpha=1.0)
          (2): Linear(in_features=32, out_features=32, bias=True)
          (3): ELU(alpha=1.0)
          (4): Linear(in_features=32, out_features=12, bias=True)
        )
        (evm): Sequential(
          (0): Linear(in_features=193, out_features=64, bias=True)
          (1): ELU(alpha=1.0)
          (2): Linear(in_features=64, out_features=64, bias=True)
          (3): ELU(alpha=1.0)
          (4): Linear(in_features=64, out_features=64, bias=True)
        )
        (qpm): Sequential(
          (0): Linear(in_features=64, out_features=32, bias=True)
          (1): ELU(alpha=1.0)
          (2): Linear(in_features=32, out_features=32, bias=True)
          (3): ELU(alpha=1.0)
          (4): Linear(in_features=32, out_features=32, bias=True)
        )
        (ppm): Sequential(
          (0): Linear(in_features=64, out_features=32, bias=False)
        )
      )
    )
    (20): StateUpdateLayer(
      (su): StateUpdate(
        (nqm): Sequential(
          (0): Linear(in_features=64, out_features=32, bias=True)
          (1): ELU(alpha=1.0)
          (2): Linear(in_features=32, out_features=32, bias=True)
          (3): ELU(alpha=1.0)
          (4): Linear(in_features=32, out_features=12, bias=True)
        )
        (eqkm): Sequential(
          (0): Linear(in_features=193, out_features=32, bias=True)
          (1): ELU(alpha=1.0)
          (2): Linear(in_features=32, out_features=32, bias=True)
          (3): ELU(alpha=1.0)
          (4): Linear(in_features=32, out_features=3, bias=True)
        )
        (epkm): Sequential(
          (0): Linear(in_features=193, out_features=32, bias=True)
          (1): ELU(alpha=1.0)
          (2): Linear(in_features=32, out_features=32, bias=True)
          (3): ELU(alpha=1.0)
          (4): Linear(in_features=32, out_features=12, bias=True)
        )
        (evm): Sequential(
          (0): Linear(in_features=193, out_features=64, bias=True)
          (1): ELU(alpha=1.0)
          (2): Linear(in_features=64, out_features=64, bias=True)
          (3): ELU(alpha=1.0)
          (4): Linear(in_features=64, out_features=64, bias=True)
        )
        (qpm): Sequential(
          (0): Linear(in_features=64, out_features=32, bias=True)
          (1): ELU(alpha=1.0)
          (2): Linear(in_features=32, out_features=32, bias=True)
          (3): ELU(alpha=1.0)
          (4): Linear(in_features=32, out_features=32, bias=True)
        )
        (ppm): Sequential(
          (0): Linear(in_features=64, out_features=32, bias=False)
        )
      )
    )
    (21): StateUpdateLayer(
      (su): StateUpdate(
        (nqm): Sequential(
          (0): Linear(in_features=64, out_features=32, bias=True)
          (1): ELU(alpha=1.0)
          (2): Linear(in_features=32, out_features=32, bias=True)
          (3): ELU(alpha=1.0)
          (4): Linear(in_features=32, out_features=12, bias=True)
        )
        (eqkm): Sequential(
          (0): Linear(in_features=193, out_features=32, bias=True)
          (1): ELU(alpha=1.0)
          (2): Linear(in_features=32, out_features=32, bias=True)
          (3): ELU(alpha=1.0)
          (4): Linear(in_features=32, out_features=3, bias=True)
        )
        (epkm): Sequential(
          (0): Linear(in_features=193, out_features=32, bias=True)
          (1): ELU(alpha=1.0)
          (2): Linear(in_features=32, out_features=32, bias=True)
          (3): ELU(alpha=1.0)
          (4): Linear(in_features=32, out_features=12, bias=True)
        )
        (evm): Sequential(
          (0): Linear(in_features=193, out_features=64, bias=True)
          (1): ELU(alpha=1.0)
          (2): Linear(in_features=64, out_features=64, bias=True)
          (3): ELU(alpha=1.0)
          (4): Linear(in_features=64, out_features=64, bias=True)
        )
        (qpm): Sequential(
          (0): Linear(in_features=64, out_features=32, bias=True)
          (1): ELU(alpha=1.0)
          (2): Linear(in_features=32, out_features=32, bias=True)
          (3): ELU(alpha=1.0)
          (4): Linear(in_features=32, out_features=32, bias=True)
        )
        (ppm): Sequential(
          (0): Linear(in_features=64, out_features=32, bias=False)
        )
      )
    )
    (22): StateUpdateLayer(
      (su): StateUpdate(
        (nqm): Sequential(
          (0): Linear(in_features=64, out_features=32, bias=True)
          (1): ELU(alpha=1.0)
          (2): Linear(in_features=32, out_features=32, bias=True)
          (3): ELU(alpha=1.0)
          (4): Linear(in_features=32, out_features=12, bias=True)
        )
        (eqkm): Sequential(
          (0): Linear(in_features=193, out_features=32, bias=True)
          (1): ELU(alpha=1.0)
          (2): Linear(in_features=32, out_features=32, bias=True)
          (3): ELU(alpha=1.0)
          (4): Linear(in_features=32, out_features=3, bias=True)
        )
        (epkm): Sequential(
          (0): Linear(in_features=193, out_features=32, bias=True)
          (1): ELU(alpha=1.0)
          (2): Linear(in_features=32, out_features=32, bias=True)
          (3): ELU(alpha=1.0)
          (4): Linear(in_features=32, out_features=12, bias=True)
        )
        (evm): Sequential(
          (0): Linear(in_features=193, out_features=64, bias=True)
          (1): ELU(alpha=1.0)
          (2): Linear(in_features=64, out_features=64, bias=True)
          (3): ELU(alpha=1.0)
          (4): Linear(in_features=64, out_features=64, bias=True)
        )
        (qpm): Sequential(
          (0): Linear(in_features=64, out_features=32, bias=True)
          (1): ELU(alpha=1.0)
          (2): Linear(in_features=32, out_features=32, bias=True)
          (3): ELU(alpha=1.0)
          (4): Linear(in_features=32, out_features=32, bias=True)
        )
        (ppm): Sequential(
          (0): Linear(in_features=64, out_features=32, bias=False)
        )
      )
    )
    (23): StateUpdateLayer(
      (su): StateUpdate(
        (nqm): Sequential(
          (0): Linear(in_features=64, out_features=32, bias=True)
          (1): ELU(alpha=1.0)
          (2): Linear(in_features=32, out_features=32, bias=True)
          (3): ELU(alpha=1.0)
          (4): Linear(in_features=32, out_features=12, bias=True)
        )
        (eqkm): Sequential(
          (0): Linear(in_features=193, out_features=32, bias=True)
          (1): ELU(alpha=1.0)
          (2): Linear(in_features=32, out_features=32, bias=True)
          (3): ELU(alpha=1.0)
          (4): Linear(in_features=32, out_features=3, bias=True)
        )
        (epkm): Sequential(
          (0): Linear(in_features=193, out_features=32, bias=True)
          (1): ELU(alpha=1.0)
          (2): Linear(in_features=32, out_features=32, bias=True)
          (3): ELU(alpha=1.0)
          (4): Linear(in_features=32, out_features=12, bias=True)
        )
        (evm): Sequential(
          (0): Linear(in_features=193, out_features=64, bias=True)
          (1): ELU(alpha=1.0)
          (2): Linear(in_features=64, out_features=64, bias=True)
          (3): ELU(alpha=1.0)
          (4): Linear(in_features=64, out_features=64, bias=True)
        )
        (qpm): Sequential(
          (0): Linear(in_features=64, out_features=32, bias=True)
          (1): ELU(alpha=1.0)
          (2): Linear(in_features=32, out_features=32, bias=True)
          (3): ELU(alpha=1.0)
          (4): Linear(in_features=32, out_features=32, bias=True)
        )
        (ppm): Sequential(
          (0): Linear(in_features=64, out_features=32, bias=False)
        )
      )
    )
    (24): StateUpdateLayer(
      (su): StateUpdate(
        (nqm): Sequential(
          (0): Linear(in_features=64, out_features=32, bias=True)
          (1): ELU(alpha=1.0)
          (2): Linear(in_features=32, out_features=32, bias=True)
          (3): ELU(alpha=1.0)
          (4): Linear(in_features=32, out_features=12, bias=True)
        )
        (eqkm): Sequential(
          (0): Linear(in_features=193, out_features=32, bias=True)
          (1): ELU(alpha=1.0)
          (2): Linear(in_features=32, out_features=32, bias=True)
          (3): ELU(alpha=1.0)
          (4): Linear(in_features=32, out_features=3, bias=True)
        )
        (epkm): Sequential(
          (0): Linear(in_features=193, out_features=32, bias=True)
          (1): ELU(alpha=1.0)
          (2): Linear(in_features=32, out_features=32, bias=True)
          (3): ELU(alpha=1.0)
          (4): Linear(in_features=32, out_features=12, bias=True)
        )
        (evm): Sequential(
          (0): Linear(in_features=193, out_features=64, bias=True)
          (1): ELU(alpha=1.0)
          (2): Linear(in_features=64, out_features=64, bias=True)
          (3): ELU(alpha=1.0)
          (4): Linear(in_features=64, out_features=64, bias=True)
        )
        (qpm): Sequential(
          (0): Linear(in_features=64, out_features=32, bias=True)
          (1): ELU(alpha=1.0)
          (2): Linear(in_features=32, out_features=32, bias=True)
          (3): ELU(alpha=1.0)
          (4): Linear(in_features=32, out_features=32, bias=True)
        )
        (ppm): Sequential(
          (0): Linear(in_features=64, out_features=32, bias=False)
        )
      )
    )
    (25): StateUpdateLayer(
      (su): StateUpdate(
        (nqm): Sequential(
          (0): Linear(in_features=64, out_features=32, bias=True)
          (1): ELU(alpha=1.0)
          (2): Linear(in_features=32, out_features=32, bias=True)
          (3): ELU(alpha=1.0)
          (4): Linear(in_features=32, out_features=12, bias=True)
        )
        (eqkm): Sequential(
          (0): Linear(in_features=193, out_features=32, bias=True)
          (1): ELU(alpha=1.0)
          (2): Linear(in_features=32, out_features=32, bias=True)
          (3): ELU(alpha=1.0)
          (4): Linear(in_features=32, out_features=3, bias=True)
        )
        (epkm): Sequential(
          (0): Linear(in_features=193, out_features=32, bias=True)
          (1): ELU(alpha=1.0)
          (2): Linear(in_features=32, out_features=32, bias=True)
          (3): ELU(alpha=1.0)
          (4): Linear(in_features=32, out_features=12, bias=True)
        )
        (evm): Sequential(
          (0): Linear(in_features=193, out_features=64, bias=True)
          (1): ELU(alpha=1.0)
          (2): Linear(in_features=64, out_features=64, bias=True)
          (3): ELU(alpha=1.0)
          (4): Linear(in_features=64, out_features=64, bias=True)
        )
        (qpm): Sequential(
          (0): Linear(in_features=64, out_features=32, bias=True)
          (1): ELU(alpha=1.0)
          (2): Linear(in_features=32, out_features=32, bias=True)
          (3): ELU(alpha=1.0)
          (4): Linear(in_features=32, out_features=32, bias=True)
        )
        (ppm): Sequential(
          (0): Linear(in_features=64, out_features=32, bias=False)
        )
      )
    )
    (26): StateUpdateLayer(
      (su): StateUpdate(
        (nqm): Sequential(
          (0): Linear(in_features=64, out_features=32, bias=True)
          (1): ELU(alpha=1.0)
          (2): Linear(in_features=32, out_features=32, bias=True)
          (3): ELU(alpha=1.0)
          (4): Linear(in_features=32, out_features=12, bias=True)
        )
        (eqkm): Sequential(
          (0): Linear(in_features=193, out_features=32, bias=True)
          (1): ELU(alpha=1.0)
          (2): Linear(in_features=32, out_features=32, bias=True)
          (3): ELU(alpha=1.0)
          (4): Linear(in_features=32, out_features=3, bias=True)
        )
        (epkm): Sequential(
          (0): Linear(in_features=193, out_features=32, bias=True)
          (1): ELU(alpha=1.0)
          (2): Linear(in_features=32, out_features=32, bias=True)
          (3): ELU(alpha=1.0)
          (4): Linear(in_features=32, out_features=12, bias=True)
        )
        (evm): Sequential(
          (0): Linear(in_features=193, out_features=64, bias=True)
          (1): ELU(alpha=1.0)
          (2): Linear(in_features=64, out_features=64, bias=True)
          (3): ELU(alpha=1.0)
          (4): Linear(in_features=64, out_features=64, bias=True)
        )
        (qpm): Sequential(
          (0): Linear(in_features=64, out_features=32, bias=True)
          (1): ELU(alpha=1.0)
          (2): Linear(in_features=32, out_features=32, bias=True)
          (3): ELU(alpha=1.0)
          (4): Linear(in_features=32, out_features=32, bias=True)
        )
        (ppm): Sequential(
          (0): Linear(in_features=64, out_features=32, bias=False)
        )
      )
    )
    (27): StateUpdateLayer(
      (su): StateUpdate(
        (nqm): Sequential(
          (0): Linear(in_features=64, out_features=32, bias=True)
          (1): ELU(alpha=1.0)
          (2): Linear(in_features=32, out_features=32, bias=True)
          (3): ELU(alpha=1.0)
          (4): Linear(in_features=32, out_features=12, bias=True)
        )
        (eqkm): Sequential(
          (0): Linear(in_features=193, out_features=32, bias=True)
          (1): ELU(alpha=1.0)
          (2): Linear(in_features=32, out_features=32, bias=True)
          (3): ELU(alpha=1.0)
          (4): Linear(in_features=32, out_features=3, bias=True)
        )
        (epkm): Sequential(
          (0): Linear(in_features=193, out_features=32, bias=True)
          (1): ELU(alpha=1.0)
          (2): Linear(in_features=32, out_features=32, bias=True)
          (3): ELU(alpha=1.0)
          (4): Linear(in_features=32, out_features=12, bias=True)
        )
        (evm): Sequential(
          (0): Linear(in_features=193, out_features=64, bias=True)
          (1): ELU(alpha=1.0)
          (2): Linear(in_features=64, out_features=64, bias=True)
          (3): ELU(alpha=1.0)
          (4): Linear(in_features=64, out_features=64, bias=True)
        )
        (qpm): Sequential(
          (0): Linear(in_features=64, out_features=32, bias=True)
          (1): ELU(alpha=1.0)
          (2): Linear(in_features=32, out_features=32, bias=True)
          (3): ELU(alpha=1.0)
          (4): Linear(in_features=32, out_features=32, bias=True)
        )
        (ppm): Sequential(
          (0): Linear(in_features=64, out_features=32, bias=False)
        )
      )
    )
    (28): StateUpdateLayer(
      (su): StateUpdate(
        (nqm): Sequential(
          (0): Linear(in_features=64, out_features=32, bias=True)
          (1): ELU(alpha=1.0)
          (2): Linear(in_features=32, out_features=32, bias=True)
          (3): ELU(alpha=1.0)
          (4): Linear(in_features=32, out_features=12, bias=True)
        )
        (eqkm): Sequential(
          (0): Linear(in_features=193, out_features=32, bias=True)
          (1): ELU(alpha=1.0)
          (2): Linear(in_features=32, out_features=32, bias=True)
          (3): ELU(alpha=1.0)
          (4): Linear(in_features=32, out_features=3, bias=True)
        )
        (epkm): Sequential(
          (0): Linear(in_features=193, out_features=32, bias=True)
          (1): ELU(alpha=1.0)
          (2): Linear(in_features=32, out_features=32, bias=True)
          (3): ELU(alpha=1.0)
          (4): Linear(in_features=32, out_features=12, bias=True)
        )
        (evm): Sequential(
          (0): Linear(in_features=193, out_features=64, bias=True)
          (1): ELU(alpha=1.0)
          (2): Linear(in_features=64, out_features=64, bias=True)
          (3): ELU(alpha=1.0)
          (4): Linear(in_features=64, out_features=64, bias=True)
        )
        (qpm): Sequential(
          (0): Linear(in_features=64, out_features=32, bias=True)
          (1): ELU(alpha=1.0)
          (2): Linear(in_features=32, out_features=32, bias=True)
          (3): ELU(alpha=1.0)
          (4): Linear(in_features=32, out_features=32, bias=True)
        )
        (ppm): Sequential(
          (0): Linear(in_features=64, out_features=32, bias=False)
        )
      )
    )
    (29): StateUpdateLayer(
      (su): StateUpdate(
        (nqm): Sequential(
          (0): Linear(in_features=64, out_features=32, bias=True)
          (1): ELU(alpha=1.0)
          (2): Linear(in_features=32, out_features=32, bias=True)
          (3): ELU(alpha=1.0)
          (4): Linear(in_features=32, out_features=12, bias=True)
        )
        (eqkm): Sequential(
          (0): Linear(in_features=193, out_features=32, bias=True)
          (1): ELU(alpha=1.0)
          (2): Linear(in_features=32, out_features=32, bias=True)
          (3): ELU(alpha=1.0)
          (4): Linear(in_features=32, out_features=3, bias=True)
        )
        (epkm): Sequential(
          (0): Linear(in_features=193, out_features=32, bias=True)
          (1): ELU(alpha=1.0)
          (2): Linear(in_features=32, out_features=32, bias=True)
          (3): ELU(alpha=1.0)
          (4): Linear(in_features=32, out_features=12, bias=True)
        )
        (evm): Sequential(
          (0): Linear(in_features=193, out_features=64, bias=True)
          (1): ELU(alpha=1.0)
          (2): Linear(in_features=64, out_features=64, bias=True)
          (3): ELU(alpha=1.0)
          (4): Linear(in_features=64, out_features=64, bias=True)
        )
        (qpm): Sequential(
          (0): Linear(in_features=64, out_features=32, bias=True)
          (1): ELU(alpha=1.0)
          (2): Linear(in_features=32, out_features=32, bias=True)
          (3): ELU(alpha=1.0)
          (4): Linear(in_features=32, out_features=32, bias=True)
        )
        (ppm): Sequential(
          (0): Linear(in_features=64, out_features=32, bias=False)
        )
      )
    )
    (30): StateUpdateLayer(
      (su): StateUpdate(
        (nqm): Sequential(
          (0): Linear(in_features=64, out_features=32, bias=True)
          (1): ELU(alpha=1.0)
          (2): Linear(in_features=32, out_features=32, bias=True)
          (3): ELU(alpha=1.0)
          (4): Linear(in_features=32, out_features=12, bias=True)
        )
        (eqkm): Sequential(
          (0): Linear(in_features=193, out_features=32, bias=True)
          (1): ELU(alpha=1.0)
          (2): Linear(in_features=32, out_features=32, bias=True)
          (3): ELU(alpha=1.0)
          (4): Linear(in_features=32, out_features=3, bias=True)
        )
        (epkm): Sequential(
          (0): Linear(in_features=193, out_features=32, bias=True)
          (1): ELU(alpha=1.0)
          (2): Linear(in_features=32, out_features=32, bias=True)
          (3): ELU(alpha=1.0)
          (4): Linear(in_features=32, out_features=12, bias=True)
        )
        (evm): Sequential(
          (0): Linear(in_features=193, out_features=64, bias=True)
          (1): ELU(alpha=1.0)
          (2): Linear(in_features=64, out_features=64, bias=True)
          (3): ELU(alpha=1.0)
          (4): Linear(in_features=64, out_features=64, bias=True)
        )
        (qpm): Sequential(
          (0): Linear(in_features=64, out_features=32, bias=True)
          (1): ELU(alpha=1.0)
          (2): Linear(in_features=32, out_features=32, bias=True)
          (3): ELU(alpha=1.0)
          (4): Linear(in_features=32, out_features=32, bias=True)
        )
        (ppm): Sequential(
          (0): Linear(in_features=64, out_features=32, bias=False)
        )
      )
    )
    (31): StateUpdateLayer(
      (su): StateUpdate(
        (nqm): Sequential(
          (0): Linear(in_features=64, out_features=32, bias=True)
          (1): ELU(alpha=1.0)
          (2): Linear(in_features=32, out_features=32, bias=True)
          (3): ELU(alpha=1.0)
          (4): Linear(in_features=32, out_features=12, bias=True)
        )
        (eqkm): Sequential(
          (0): Linear(in_features=193, out_features=32, bias=True)
          (1): ELU(alpha=1.0)
          (2): Linear(in_features=32, out_features=32, bias=True)
          (3): ELU(alpha=1.0)
          (4): Linear(in_features=32, out_features=3, bias=True)
        )
        (epkm): Sequential(
          (0): Linear(in_features=193, out_features=32, bias=True)
          (1): ELU(alpha=1.0)
          (2): Linear(in_features=32, out_features=32, bias=True)
          (3): ELU(alpha=1.0)
          (4): Linear(in_features=32, out_features=12, bias=True)
        )
        (evm): Sequential(
          (0): Linear(in_features=193, out_features=64, bias=True)
          (1): ELU(alpha=1.0)
          (2): Linear(in_features=64, out_features=64, bias=True)
          (3): ELU(alpha=1.0)
          (4): Linear(in_features=64, out_features=64, bias=True)
        )
        (qpm): Sequential(
          (0): Linear(in_features=64, out_features=32, bias=True)
          (1): ELU(alpha=1.0)
          (2): Linear(in_features=32, out_features=32, bias=True)
          (3): ELU(alpha=1.0)
          (4): Linear(in_features=32, out_features=32, bias=True)
        )
        (ppm): Sequential(
          (0): Linear(in_features=64, out_features=32, bias=False)
        )
      )
    )
  )
  (spl): StatePoolLayer(
    (sam): Sequential(
      (0): Linear(in_features=64, out_features=32, bias=True)
      (1): ELU(alpha=1.0)
      (2): Linear(in_features=32, out_features=32, bias=True)
      (3): ELU(alpha=1.0)
      (4): Linear(in_features=32, out_features=8, bias=True)
    )
    (zdm): Sequential(
      (0): Linear(in_features=128, out_features=32, bias=True)
      (1): ELU(alpha=1.0)
      (2): Linear(in_features=32, out_features=32, bias=True)
      (3): ELU(alpha=1.0)
      (4): Linear(in_features=32, out_features=64, bias=True)
    )
    (zdm_vec): Sequential(
      (0): Linear(in_features=128, out_features=64, bias=False)
    )
  )
  (dm): Sequential(
    (0): Linear(in_features=128, out_features=64, bias=True)
    (1): ELU(alpha=1.0)
    (2): Linear(in_features=64, out_features=64, bias=True)
    (3): ELU(alpha=1.0)
    (4): Linear(in_features=64, out_features=20, bias=True)
  )
)
> 1494332 parameters
>>> Loading data
> training data size: 86610
> testing data size: 24601
>>> Starting training
  0%|          | 0/86610 [00:00<?, ?it/s]  0%|          | 1/86610 [00:01<29:25:53,  1.22s/it]  0%|          | 2/86610 [00:02<25:55:27,  1.08s/it]  0%|          | 3/86610 [00:02<21:09:41,  1.14it/s]  0%|          | 4/86610 [00:03<1
…
